INFO:root:Net(
  (conv1): Conv2d(28, 64, kernel_size=(5, 5), stride=(1, 1), padding=(2, 2))
  (conv1_bn): BatchNorm2d(64, eps=1e-05, momentum=0.1, affine=True, track_running_stats=True)
  (conv2): Conv2d(64, 128, kernel_size=(2, 2), stride=(1, 1), padding=(2, 2))
  (fc1): Linear(in_features=2048, out_features=1024, bias=True)
  (dropout): Dropout(p=0.3)
  (fc2): Linear(in_features=1024, out_features=512, bias=True)
  (bn): BatchNorm1d(1, eps=1e-05, momentum=0.1, affine=True, track_running_stats=True)
  (fc3): Linear(in_features=512, out_features=128, bias=True)
  (fc4): Linear(in_features=128, out_features=47, bias=True)
)
INFO:root:Net(
  (conv1): Conv2d(28, 64, kernel_size=(5, 5), stride=(1, 1), padding=(2, 2))
  (conv1_bn): BatchNorm2d(64, eps=1e-05, momentum=0.1, affine=True, track_running_stats=True)
  (conv2): Conv2d(64, 128, kernel_size=(2, 2), stride=(1, 1), padding=(2, 2))
  (fc1): Linear(in_features=2048, out_features=1024, bias=True)
  (dropout): Dropout(p=0.3)
  (fc2): Linear(in_features=1024, out_features=512, bias=True)
  (bn): BatchNorm1d(1, eps=1e-05, momentum=0.1, affine=True, track_running_stats=True)
  (fc3): Linear(in_features=512, out_features=128, bias=True)
  (fc4): Linear(in_features=128, out_features=47, bias=True)
)
INFO:root:Net(
  (conv1): Conv2d(28, 64, kernel_size=(5, 5), stride=(1, 1), padding=(2, 2))
  (conv1_bn): BatchNorm2d(64, eps=1e-05, momentum=0.1, affine=True, track_running_stats=True)
  (conv2): Conv2d(64, 128, kernel_size=(2, 2), stride=(1, 1), padding=(2, 2))
  (fc1): Linear(in_features=2048, out_features=1024, bias=True)
  (dropout): Dropout(p=0.3)
  (fc2): Linear(in_features=1024, out_features=512, bias=True)
  (bn): BatchNorm1d(1, eps=1e-05, momentum=0.1, affine=True, track_running_stats=True)
  (fc3): Linear(in_features=512, out_features=128, bias=True)
  (fc4): Linear(in_features=128, out_features=47, bias=True)
)
INFO:root:Net(
  (conv1): Conv2d(28, 64, kernel_size=(5, 5), stride=(1, 1), padding=(2, 2))
  (conv1_bn): BatchNorm2d(64, eps=1e-05, momentum=0.1, affine=True, track_running_stats=True)
  (conv2): Conv2d(64, 128, kernel_size=(2, 2), stride=(1, 1), padding=(2, 2))
  (fc1): Linear(in_features=2048, out_features=1024, bias=True)
  (dropout): Dropout(p=0.3)
  (fc2): Linear(in_features=1024, out_features=512, bias=True)
  (bn): BatchNorm1d(1, eps=1e-05, momentum=0.1, affine=True, track_running_stats=True)
  (fc3): Linear(in_features=512, out_features=128, bias=True)
  (fc4): Linear(in_features=128, out_features=47, bias=True)
)
INFO:root:Net(
  (conv1): Conv2d(28, 64, kernel_size=(5, 5), stride=(1, 1), padding=(2, 2))
  (conv1_bn): BatchNorm2d(64, eps=1e-05, momentum=0.1, affine=True, track_running_stats=True)
  (conv2): Conv2d(64, 128, kernel_size=(2, 2), stride=(1, 1), padding=(2, 2))
  (fc1): Linear(in_features=2048, out_features=1024, bias=True)
  (dropout): Dropout(p=0.3)
  (fc2): Linear(in_features=1024, out_features=512, bias=True)
  (bn): BatchNorm1d(1, eps=1e-05, momentum=0.1, affine=True, track_running_stats=True)
  (fc3): Linear(in_features=512, out_features=128, bias=True)
  (fc4): Linear(in_features=128, out_features=47, bias=True)
)
INFO:root:Net(
  (conv1): Conv2d(28, 64, kernel_size=(5, 5), stride=(1, 1), padding=(2, 2))
  (conv1_bn): BatchNorm2d(64, eps=1e-05, momentum=0.1, affine=True, track_running_stats=True)
  (conv2): Conv2d(64, 128, kernel_size=(2, 2), stride=(1, 1), padding=(2, 2))
  (fc1): Linear(in_features=2048, out_features=1024, bias=True)
  (dropout): Dropout(p=0.3)
  (fc2): Linear(in_features=1024, out_features=512, bias=True)
  (bn): BatchNorm1d(1, eps=1e-05, momentum=0.1, affine=True, track_running_stats=True)
  (fc3): Linear(in_features=512, out_features=128, bias=True)
  (fc4): Linear(in_features=128, out_features=47, bias=True)
)
INFO:root:Net(
  (conv1): Conv2d(28, 64, kernel_size=(5, 5), stride=(1, 1), padding=(2, 2))
  (conv1_bn): BatchNorm2d(64, eps=1e-05, momentum=0.1, affine=True, track_running_stats=True)
  (conv2): Conv2d(64, 128, kernel_size=(2, 2), stride=(1, 1), padding=(2, 2))
  (fc1): Linear(in_features=2048, out_features=1024, bias=True)
  (dropout): Dropout(p=0.3)
  (fc2): Linear(in_features=1024, out_features=512, bias=True)
  (bn): BatchNorm1d(1, eps=1e-05, momentum=0.1, affine=True, track_running_stats=True)
  (fc3): Linear(in_features=512, out_features=128, bias=True)
  (fc4): Linear(in_features=128, out_features=47, bias=True)
)
INFO:root:Number of parameters: 2772593
INFO:root:Net(
  (conv1): Conv2d(28, 64, kernel_size=(5, 5), stride=(1, 1), padding=(2, 2))
  (conv1_bn): BatchNorm2d(64, eps=1e-05, momentum=0.1, affine=True, track_running_stats=True)
  (conv2): Conv2d(64, 128, kernel_size=(2, 2), stride=(1, 1), padding=(2, 2))
  (fc1): Linear(in_features=2048, out_features=1024, bias=True)
  (dropout): Dropout(p=0.3)
  (fc2): Linear(in_features=1024, out_features=512, bias=True)
  (bn): BatchNorm1d(1, eps=1e-05, momentum=0.1, affine=True, track_running_stats=True)
  (fc3): Linear(in_features=512, out_features=128, bias=True)
  (fc4): Linear(in_features=128, out_features=47, bias=True)
)
INFO:root:Number of parameters: 2772593
INFO:root:Net(
  (conv1): Conv2d(28, 64, kernel_size=(5, 5), stride=(1, 1), padding=(2, 2))
  (conv1_bn): BatchNorm2d(64, eps=1e-05, momentum=0.1, affine=True, track_running_stats=True)
  (conv2): Conv2d(64, 128, kernel_size=(2, 2), stride=(1, 1), padding=(2, 2))
  (fc1): Linear(in_features=2048, out_features=1024, bias=True)
  (dropout): Dropout(p=0.3)
  (fc2): Linear(in_features=1024, out_features=512, bias=True)
  (bn): BatchNorm1d(1, eps=1e-05, momentum=0.1, affine=True, track_running_stats=True)
  (fc3): Linear(in_features=512, out_features=128, bias=True)
  (fc4): Linear(in_features=128, out_features=47, bias=True)
)
INFO:root:Number of parameters: 2772593
INFO:root:Net(
  (conv1): Conv2d(28, 64, kernel_size=(5, 5), stride=(1, 1), padding=(2, 2))
  (conv1_bn): BatchNorm2d(64, eps=1e-05, momentum=0.1, affine=True, track_running_stats=True)
  (conv2): Conv2d(64, 128, kernel_size=(2, 2), stride=(1, 1), padding=(2, 2))
  (fc1): Linear(in_features=2048, out_features=1024, bias=True)
  (dropout): Dropout(p=0.3)
  (fc2): Linear(in_features=1024, out_features=512, bias=True)
  (bn): BatchNorm1d(1, eps=1e-05, momentum=0.1, affine=True, track_running_stats=True)
  (fc3): Linear(in_features=512, out_features=128, bias=True)
  (fc4): Linear(in_features=128, out_features=47, bias=True)
)
INFO:root:Number of parameters: 2772593
INFO:root:Net(
  (conv1): Conv2d(28, 64, kernel_size=(5, 5), stride=(1, 1), padding=(2, 2))
  (conv1_bn): BatchNorm2d(64, eps=1e-05, momentum=0.1, affine=True, track_running_stats=True)
  (conv2): Conv2d(64, 128, kernel_size=(2, 2), stride=(1, 1), padding=(2, 2))
  (fc1): Linear(in_features=2048, out_features=1024, bias=True)
  (dropout): Dropout(p=0.3)
  (fc2): Linear(in_features=1024, out_features=512, bias=True)
  (bn): BatchNorm1d(1, eps=1e-05, momentum=0.1, affine=True, track_running_stats=True)
  (fc3): Linear(in_features=512, out_features=128, bias=True)
  (fc4): Linear(in_features=128, out_features=47, bias=True)
)
INFO:root:Number of parameters: 2772593
INFO:root:Net(
  (conv1): Conv2d(28, 64, kernel_size=(5, 5), stride=(1, 1), padding=(2, 2))
  (conv1_bn): BatchNorm2d(64, eps=1e-05, momentum=0.1, affine=True, track_running_stats=True)
  (conv2): Conv2d(64, 128, kernel_size=(2, 2), stride=(1, 1), padding=(2, 2))
  (fc1): Linear(in_features=2048, out_features=1024, bias=True)
  (dropout): Dropout(p=0.3)
  (fc2): Linear(in_features=1024, out_features=512, bias=True)
  (bn): BatchNorm1d(1, eps=1e-05, momentum=0.1, affine=True, track_running_stats=True)
  (fc3): Linear(in_features=512, out_features=128, bias=True)
  (fc4): Linear(in_features=128, out_features=47, bias=True)
)
INFO:root:Number of parameters: 2772593
INFO:root:Net(
  (conv1): Conv2d(28, 64, kernel_size=(5, 5), stride=(1, 1), padding=(2, 2))
  (conv1_bn): BatchNorm2d(64, eps=1e-05, momentum=0.1, affine=True, track_running_stats=True)
  (conv2): Conv2d(64, 128, kernel_size=(2, 2), stride=(1, 1), padding=(2, 2))
  (fc1): Linear(in_features=2048, out_features=1024, bias=True)
  (dropout): Dropout(p=0.3)
  (fc2): Linear(in_features=1024, out_features=512, bias=True)
  (bn): BatchNorm1d(1, eps=1e-05, momentum=0.1, affine=True, track_running_stats=True)
  (fc3): Linear(in_features=512, out_features=128, bias=True)
  (fc4): Linear(in_features=128, out_features=47, bias=True)
)
INFO:root:Number of parameters: 2772593
INFO:root:Net(
  (conv1): Conv2d(28, 64, kernel_size=(5, 5), stride=(1, 1), padding=(2, 2))
  (conv1_bn): BatchNorm2d(64, eps=1e-05, momentum=0.1, affine=True, track_running_stats=True)
  (conv2): Conv2d(64, 128, kernel_size=(2, 2), stride=(1, 1), padding=(2, 2))
  (fc1): Linear(in_features=2048, out_features=1024, bias=True)
  (dropout): Dropout(p=0.3)
  (fc2): Linear(in_features=1024, out_features=512, bias=True)
  (bn): BatchNorm1d(1, eps=1e-05, momentum=0.1, affine=True, track_running_stats=True)
  (fc3): Linear(in_features=512, out_features=128, bias=True)
  (fc4): Linear(in_features=128, out_features=47, bias=True)
)
INFO:root:Number of parameters: 2772593
INFO:root:Net(
  (conv1): Conv2d(28, 64, kernel_size=(5, 5), stride=(1, 1), padding=(2, 2))
  (conv1_bn): BatchNorm2d(64, eps=1e-05, momentum=0.1, affine=True, track_running_stats=True)
  (conv2): Conv2d(64, 128, kernel_size=(2, 2), stride=(1, 1), padding=(2, 2))
  (fc1): Linear(in_features=2048, out_features=1024, bias=True)
  (dropout): Dropout(p=0.3)
  (fc2): Linear(in_features=1024, out_features=512, bias=True)
  (bn): BatchNorm1d(1, eps=1e-05, momentum=0.1, affine=True, track_running_stats=True)
  (fc3): Linear(in_features=512, out_features=128, bias=True)
  (fc4): Linear(in_features=128, out_features=47, bias=True)
)
INFO:root:Number of parameters: 2772593
INFO:root:Net(
  (conv1): Conv2d(28, 64, kernel_size=(5, 5), stride=(1, 1), padding=(2, 2))
  (conv1_bn): BatchNorm2d(64, eps=1e-05, momentum=0.1, affine=True, track_running_stats=True)
  (conv2): Conv2d(64, 128, kernel_size=(2, 2), stride=(1, 1), padding=(2, 2))
  (fc1): Linear(in_features=2048, out_features=1024, bias=True)
  (dropout): Dropout(p=0.3)
  (fc2): Linear(in_features=1024, out_features=512, bias=True)
  (bn): BatchNorm1d(1, eps=1e-05, momentum=0.1, affine=True, track_running_stats=True)
  (fc3): Linear(in_features=512, out_features=128, bias=True)
  (fc4): Linear(in_features=128, out_features=47, bias=True)
)
INFO:root:Number of parameters: 2772593
INFO:root:Net(
  (conv1): Conv2d(28, 64, kernel_size=(5, 5), stride=(1, 1), padding=(2, 2))
  (conv1_bn): BatchNorm2d(64, eps=1e-05, momentum=0.1, affine=True, track_running_stats=True)
  (conv2): Conv2d(64, 128, kernel_size=(2, 2), stride=(1, 1), padding=(2, 2))
  (fc1): Linear(in_features=2048, out_features=1024, bias=True)
  (dropout): Dropout(p=0.3)
  (fc2): Linear(in_features=1024, out_features=512, bias=True)
  (bn): BatchNorm1d(1, eps=1e-05, momentum=0.1, affine=True, track_running_stats=True)
  (fc3): Linear(in_features=512, out_features=128, bias=True)
  (fc4): Linear(in_features=128, out_features=47, bias=True)
)
INFO:root:Number of parameters: 2772593
INFO:root:Net(
  (conv1): Conv2d(28, 64, kernel_size=(5, 5), stride=(1, 1), padding=(2, 2))
  (conv1_bn): BatchNorm2d(64, eps=1e-05, momentum=0.1, affine=True, track_running_stats=True)
  (conv2): Conv2d(64, 128, kernel_size=(2, 2), stride=(1, 1), padding=(2, 2))
  (fc1): Linear(in_features=2048, out_features=1024, bias=True)
  (dropout): Dropout(p=0.3)
  (fc2): Linear(in_features=1024, out_features=512, bias=True)
  (bn): BatchNorm1d(1, eps=1e-05, momentum=0.1, affine=True, track_running_stats=True)
  (fc3): Linear(in_features=512, out_features=128, bias=True)
  (fc4): Linear(in_features=128, out_features=47, bias=True)
)
INFO:root:Number of parameters: 2772593
INFO:root:Net(
  (conv1): Conv2d(28, 64, kernel_size=(5, 5), stride=(1, 1), padding=(2, 2))
  (conv1_bn): BatchNorm2d(64, eps=1e-05, momentum=0.1, affine=True, track_running_stats=True)
  (conv2): Conv2d(64, 128, kernel_size=(2, 2), stride=(1, 1), padding=(2, 2))
  (fc1): Linear(in_features=2048, out_features=1024, bias=True)
  (dropout): Dropout(p=0.3)
  (fc2): Linear(in_features=1024, out_features=512, bias=True)
  (bn): BatchNorm1d(1, eps=1e-05, momentum=0.1, affine=True, track_running_stats=True)
  (fc3): Linear(in_features=512, out_features=128, bias=True)
  (fc4): Linear(in_features=128, out_features=47, bias=True)
)
INFO:root:Number of parameters: 2772593
INFO:root:Net(
  (conv1): Conv2d(28, 64, kernel_size=(5, 5), stride=(1, 1), padding=(2, 2))
  (conv1_bn): BatchNorm2d(64, eps=1e-05, momentum=0.1, affine=True, track_running_stats=True)
  (conv2): Conv2d(64, 128, kernel_size=(2, 2), stride=(1, 1), padding=(2, 2))
  (fc1): Linear(in_features=2048, out_features=1024, bias=True)
  (dropout): Dropout(p=0.3)
  (fc2): Linear(in_features=1024, out_features=512, bias=True)
  (bn): BatchNorm1d(1, eps=1e-05, momentum=0.1, affine=True, track_running_stats=True)
  (fc3): Linear(in_features=512, out_features=128, bias=True)
  (fc4): Linear(in_features=128, out_features=47, bias=True)
)
INFO:root:Number of parameters: 2772593
INFO:root:Net(
  (conv1): Conv2d(28, 64, kernel_size=(5, 5), stride=(1, 1), padding=(2, 2))
  (conv1_bn): BatchNorm2d(64, eps=1e-05, momentum=0.1, affine=True, track_running_stats=True)
  (conv2): Conv2d(64, 128, kernel_size=(2, 2), stride=(1, 1), padding=(2, 2))
  (fc1): Linear(in_features=2048, out_features=1024, bias=True)
  (dropout): Dropout(p=0.3)
  (fc2): Linear(in_features=1024, out_features=512, bias=True)
  (bn): BatchNorm1d(1, eps=1e-05, momentum=0.1, affine=True, track_running_stats=True)
  (fc3): Linear(in_features=512, out_features=128, bias=True)
  (fc4): Linear(in_features=128, out_features=47, bias=True)
)
INFO:root:Number of parameters: 2772593
INFO:root:Net(
  (conv1): Conv2d(28, 64, kernel_size=(5, 5), stride=(1, 1), padding=(2, 2))
  (conv1_bn): BatchNorm2d(64, eps=1e-05, momentum=0.1, affine=True, track_running_stats=True)
  (conv2): Conv2d(64, 128, kernel_size=(2, 2), stride=(1, 1), padding=(2, 2))
  (fc1): Linear(in_features=2048, out_features=1024, bias=True)
  (dropout): Dropout(p=0.3)
  (fc2): Linear(in_features=1024, out_features=512, bias=True)
  (bn): BatchNorm1d(1, eps=1e-05, momentum=0.1, affine=True, track_running_stats=True)
  (fc3): Linear(in_features=512, out_features=128, bias=True)
  (fc4): Linear(in_features=128, out_features=47, bias=True)
)
INFO:root:Number of parameters: 2772593
INFO:root:Net(
  (conv1): Conv2d(28, 64, kernel_size=(5, 5), stride=(1, 1), padding=(2, 2))
  (conv1_bn): BatchNorm2d(64, eps=1e-05, momentum=0.1, affine=True, track_running_stats=True)
  (conv2): Conv2d(64, 128, kernel_size=(2, 2), stride=(1, 1), padding=(2, 2))
  (fc1): Linear(in_features=2048, out_features=1024, bias=True)
  (dropout): Dropout(p=0.3)
  (fc2): Linear(in_features=1024, out_features=512, bias=True)
  (bn): BatchNorm1d(1, eps=1e-05, momentum=0.1, affine=True, track_running_stats=True)
  (fc3): Linear(in_features=512, out_features=128, bias=True)
  (fc4): Linear(in_features=128, out_features=47, bias=True)
)
INFO:root:Number of parameters: 2772593
INFO:root:Net(
  (conv1): Conv2d(28, 64, kernel_size=(5, 5), stride=(1, 1), padding=(2, 2))
  (conv1_bn): BatchNorm2d(64, eps=1e-05, momentum=0.1, affine=True, track_running_stats=True)
  (conv2): Conv2d(64, 128, kernel_size=(2, 2), stride=(1, 1), padding=(2, 2))
  (fc1): Linear(in_features=2048, out_features=1024, bias=True)
  (dropout): Dropout(p=0.3)
  (fc2): Linear(in_features=1024, out_features=512, bias=True)
  (bn): BatchNorm1d(1, eps=1e-05, momentum=0.1, affine=True, track_running_stats=True)
  (fc3): Linear(in_features=512, out_features=128, bias=True)
  (fc4): Linear(in_features=128, out_features=47, bias=True)
)
INFO:root:Number of parameters: 2772593
INFO:root:Net(
  (conv1): Conv2d(28, 64, kernel_size=(5, 5), stride=(1, 1), padding=(2, 2))
  (conv1_bn): BatchNorm2d(64, eps=1e-05, momentum=0.1, affine=True, track_running_stats=True)
  (conv2): Conv2d(64, 128, kernel_size=(2, 2), stride=(1, 1), padding=(2, 2))
  (fc1): Linear(in_features=2048, out_features=1024, bias=True)
  (dropout): Dropout(p=0.3)
  (fc2): Linear(in_features=1024, out_features=512, bias=True)
  (bn): BatchNorm1d(1, eps=1e-05, momentum=0.1, affine=True, track_running_stats=True)
  (fc3): Linear(in_features=512, out_features=128, bias=True)
  (fc4): Linear(in_features=128, out_features=47, bias=True)
)
INFO:root:Number of parameters: 2772593
INFO:root:Net(
  (conv1): Conv2d(28, 64, kernel_size=(5, 5), stride=(1, 1), padding=(2, 2))
  (conv1_bn): BatchNorm2d(64, eps=1e-05, momentum=0.1, affine=True, track_running_stats=True)
  (conv2): Conv2d(64, 128, kernel_size=(2, 2), stride=(1, 1), padding=(2, 2))
  (fc1): Linear(in_features=2048, out_features=1024, bias=True)
  (dropout): Dropout(p=0.3)
  (fc2): Linear(in_features=1024, out_features=512, bias=True)
  (bn): BatchNorm1d(1, eps=1e-05, momentum=0.1, affine=True, track_running_stats=True)
  (fc3): Linear(in_features=512, out_features=128, bias=True)
  (fc4): Linear(in_features=128, out_features=47, bias=True)
)
INFO:root:Number of parameters: 2772593
INFO:root:Net(
  (conv1): Conv2d(28, 64, kernel_size=(5, 5), stride=(1, 1), padding=(2, 2))
  (conv1_bn): BatchNorm2d(64, eps=1e-05, momentum=0.1, affine=True, track_running_stats=True)
  (conv2): Conv2d(64, 128, kernel_size=(2, 2), stride=(1, 1), padding=(2, 2))
  (fc1): Linear(in_features=2048, out_features=1024, bias=True)
  (dropout): Dropout(p=0.3)
  (fc2): Linear(in_features=1024, out_features=512, bias=True)
  (bn): BatchNorm1d(1, eps=1e-05, momentum=0.1, affine=True, track_running_stats=True)
  (fc3): Linear(in_features=512, out_features=128, bias=True)
  (fc4): Linear(in_features=128, out_features=47, bias=True)
)
INFO:root:Number of parameters: 2772593
INFO:root:Net(
  (conv1): Conv2d(28, 64, kernel_size=(5, 5), stride=(1, 1), padding=(2, 2))
  (conv1_bn): BatchNorm2d(64, eps=1e-05, momentum=0.1, affine=True, track_running_stats=True)
  (conv2): Conv2d(64, 128, kernel_size=(2, 2), stride=(1, 1), padding=(2, 2))
  (fc1): Linear(in_features=2048, out_features=1024, bias=True)
  (dropout): Dropout(p=0.3)
  (fc2): Linear(in_features=1024, out_features=512, bias=True)
  (bn): BatchNorm1d(1, eps=1e-05, momentum=0.1, affine=True, track_running_stats=True)
  (fc3): Linear(in_features=512, out_features=128, bias=True)
  (fc4): Linear(in_features=128, out_features=47, bias=True)
)
INFO:root:Number of parameters: 2772593
INFO:root:Epoch 0000Train Acc 0.0227 | Test Acc 0.0191
INFO:root:Epoch 0001Train Acc 0.5018 | Test Acc 0.5774
INFO:root:Epoch 0002Train Acc 0.6962 | Test Acc 0.7270
